model_params.pth (torch, 221720 bytes, 19 tensors)

0.weight f4 [128, 330]
00000000: 12de 00bd b03e acbb ac1f 083d f6c6 2f3d
00000010: a480 22bc 226d 5f3d 703f 4ebc c674 2a3d
00000020: 76cf 51bd c8cc 0fbd bcbc acbc 6538 22bd
00000030: 8013 c23c c4a1 44bd dca7 153d 388a 093d
00000040: 50af 3d3d dc1d 47bc c0ba 323c bad2 29bd
00000050: aa7f 023d 1433 1a3d b7af cebc 2ca3 bc3c
00000060: 3c8f 3abc 0d07 e9bc 8807 82bb a275 39bd
00000070: 308b c83c e00d 2e3d 88bd 053c 5cf2 b53c
00000080: 74df 1f3d f66e 2c3d b07e bebb 4801 06bc
00000090: dc2d 433d 2879 c2bc 4013 773a 2885 ef3c
000000a0: 88a9 2a3c 94d4 b3bc a69d b7bc 3a5d 613d
000000b0: 92d7 f0bc 7a40 89bc 16a6 5f3d 5017 38bb
000000c0: 407e 423c 4afd 4f3d 7681 393d 3080 5c3c
000000d0: 200f 1b3d 7a2d 073d a437 2e3d f86a 20bc
000000e0: a892 87bc 643b f63c 90d2 633c 8068 4d3d
000000f0: 90f5 8d3b 58ed 6ebc ac30 c23c 2056 8d3b
00000100: 481f 14bc a07e da3b d6b1 1bbd d6d6 98bc
00000110: cc3a 213d f816 303c dcb0 d7bc 4239 a0bc
00000120: 34f6 343d 5014 233c 54a2 0b3d 8002 6a3c
00000130: ba5e 063d 0e3d 0f3d 3041 6f3c 0158 5bbd
00000140: 88c5 213c 184b a7bb 4c4d 60bd b01d b0bb
00000150: 70b7 31bd 309f 5c3d 0015 413d 249c 0f3d
00000160: 727d 83bc 5a63 d0bc 00f9 dc3c 37a0 3fbd
00000170: 841f 343d 806f 12ba f4cc 75bc 5487 85bc
00000180: 50c4 e53b 6809 103d c435 ce3c 3f3b e8bc
00000190: 40b3 653c ae03 09bd b352 fabc 1090 103d
000001a0: 1c18 a33c ac49 b7bc 122d 0c3d dd70 52bd
000001b0: c4c6 2bbd 6abc 533d be2b 2f3d 6835 50bd
000001c0: cc60 d73c 5887 8f3c e2e9 4a3d 602d a83c
000001d0: 5836 ffbb d6dc 2b3d 2411 18bc f44b a13c
000001e0: 9ce7 cc3c 3a18 383d 36fe 44bd 6478 02bd
000001f0: 9040 423d b03a da3b 48b5 d33c 9c05 f4bc
00000200: 5079 0b3d 84a7 ec3c 662b 16bd 7d13 3dbd
00000210: 2e5f 3cbd d88c b73c 203d a0bc 0a9f 503d
00000220: 5897 32bc a024 43bd 1404 f2bc c092 61bb
00000230: 8b9e 29bd f42b 0cbc 20b6 eeba dad0 16bd
00000240: 5e8e 373d e0e9 41bc 79dd 4ebd 8d3a d3bc
00000250: 5088 573c 80af a73c 7ccd a4bc 7c39 99bc
00000260: 5416 163d 302a d2bc c98b 50bd dbc3 24bd
00000270: 50a3 97bb 9209 483d f48e a83c 5865 483c
00000280: 60e2 483d 9aa2 333d 9009 f83c 7675 063d
00000290: 1053 6cbc d0e1 f93c 9a98 1c3d 5619 223d
000002a0: 0089 42b9 b859 23bc dbd2 27bd 3064 363c
000002b0: 3b92 cbbc 2288 81bc 0820 263d 88f5 3fbd
000002c0: d876 513d 460e 223d 8c93 253d e075 8cba
000002d0: 6831 45bd 7edf 05bd 6070 113b 65a9 37bd
000002e0: 783b b6bb 883d 2d3c 160f a4bc 80f6 1f3d
000002f0: 6cc1 a33c 40ab e53c ea64 5c3d e8dc 5d3d
00000300: c8e8 b2bc 4cb5 29bc 02cc d6bc d48a a7bc
00000310: 4675 a9bc 0c1e 17bd e8c8 21bc 64bc e8bc
00000320: 802c 903a 565a 1a3d 4b46 53bd 7fad 51bd
00000330: e209 46bd 72cc a9bc 74a4 833c 6067 4d3b
00000340: ee97 19bd 6039 50bb 9e29 bebc 9681 5cbd
00000350: 7c8a 24bd 7808 5c3c 708b 7a3c 2e60 91bc
00000360: f02f ca3b 3277 acbc 14d8 383d 74c9 593d
00000370: 9762 c4bc 14f6 91bc dcd2 38bc 805e 42bc
00000380: 7485 863c 4649 4cbd 004c 333d 00d5 38bb
00000390: 8c49 4fbc 948c 543d 726c 403d 68a4 c53c
000003a0: c6a3 47bd 5f0c ccbc 3816 dd3c b8fd 143c
000003b0: b08a 5a3b 90be 2fbc f043 df3c 3038 473b
000003c0: 0791 3abd c40c d13c c0c8 3abd 688e cf3c
000003d0: 7806 d13b de2d 583d 5481 2fbd 7b92 3fbd
000003e0: 2456 06bc c419 24bd a0a6 86bc c626 32bd
000003f0: a346 ffbc 2444 6dbc 03e1 0abd b83c 033d
-0.031461783 -0.0052564964 0.03323333 0.042914353 -0.009918366 0.054547437 -0.012588367 0.04161527
-0.05122324 -0.035107404 -0.02108609 -0.039604563 0.023690939 -0.048005834 0.036537036 0.03357908
0.04630977 -0.012153115 0.0109087825 -0.04146073 0.03186003 0.03764637 -0.025230272 0.023027025
-0.011386689 -0.028445745 -0.003968183 -0.0452782 0.024480432 0.0424937 0.008162864 0.022210293
0.03903146 0.042098008 -0.005813442 -0.008179016 0.047651157 -0.023739412 0.0009425171 0.029238299
0.010416396 -0.021951951 -0.02241404 0.05502055 -0.029399667 -0.016754378 0.05460175 -0.0028090067
0.011870921 0.050778665 0.04528948 0.013458297 0.03785622 0.033002354 0.04253353 -0.009791128
-0.016549423 0.030057617 0.0139051825 0.050148487 0.004332252 -0.014582954 0.02370485 0.0043132454
-0.009040661 0.006667927 -0.038011394 -0.01865713 0.039362714 0.010747664 -0.02632945 -0.019558553
0.04418011 0.009953573 0.034090355 0.014282823 0.032805182 0.034970336 0.014602944 -0.053550724
0.009873755 -0.0051053874 -0.054761216 -0.005374633 -0.04338783 0.05386275 0.047139168 0.035061017
-0.016051028 -0.025438 0.026974201 -0.046783652 0.04397537 -0.0005586073 -0.015002478 -0.016299881
0.0070119277 0.03516522 0.025172122 -0.028348563 0.014019787 -0.033450775 -0.030557012 0.03529364
0.019908957 -0.022373997 0.03422267 -0.051377166 -0.041937605 0.051693358 0.042766325 -0.050832182
0.026291274 0.017520592 0.049539454 0.020529449 -0.0077884607 0.041958652 -0.00928143 0.019689538
0.025012784 0.04494498 -0.048093997 -0.031853095 0.047424853 0.006659828 0.025843278 -0.029787831
0.03405124 0.028888471 -0.03666248 -0.046161164 -0.045989208 0.022406027 -0.019560397 0.05093292
-0.010900341 -0.04764235 -0.02954296 -0.0034419745 -0.041410964 -0.008555401 -0.0018212236 -0.03682027
0.044813506 -0.011835545 -0.05050418 -0.025784755 0.013155058 0.020469427 -0.020117514 -0.018704168
0.036642388 -0.025654882 -0.05091456 -0.040225845 -0.0046276227 0.048837252 0.020575978 0.0122311935
0.049044013 0.04385624 0.030277997 0.032826863 -0.0144241005 0.030503184 0.03823147 0.039574943
-0.00018552318 -0.009970121 -0.04097257 0.011132285 -0.024850002 -0.015811983 0.04055789 -0.046865016
0.05113873 0.039564393 0.040423915 -0.0010716282 -0.04814282 -0.032683842 0.0022192225 -0.04483928
-0.0055612884 0.010573752 -0.020026725 0.03905344 0.019989692 0.02803576 0.053807177 0.05416575
-0.021839514 -0.010358166 -0.026220325 -0.02045194 -0.020685803 -0.03689389 -0.00987456 -0.028410144
0.001099959 0.037683807 -0.05158071 -0.05119085 -0.04834927 -0.02072737 0.016069628 0.0031342134
-0.037498407 -0.003177248 -0.023213204 -0.05383452 -0.04017113 0.0134297535 0.015292034 -0.017746057
0.0061702654 -0.02105293 0.045127943 0.053170636 -0.023972793 -0.017817535 -0.011280742 -0.011863351
0.016421057 -0.049874566 0.04377365 -0.002820313 -0.012651812 0.05189188 0.04697842 0.024126247
-0.04874017 -0.024908243 0.026988134 0.009093694 0.0033346824 -0.010726586 0.027254075 0.003039848
-0.045548465 0.025518782 -0.045601606 0.02533646 0.006378945 0.052778117 -0.042847946 -0.046770554
-0.008199248 -0.040063635 -0.016436875 -0.04349401 -0.031161612 -0.014481578 -0.033905994 0.032040328

0.bias f4 [128]
00000000: 08b5 55bc ac38 ac3c e0f6 35bc 7020 11bb
00000010: 5993 25bd 4abe 1c3d 6446 513d 2a2f fabc
00000020: 531d e5bc 2082 7f3b 68bb 5f3d d82c cb3b
00000030: e049 963c 24bc 063d 7e3b 353d c2f6 f3bc
00000040: ba8a 453d b8c9 153d 6088 6a3b 9c9c b33c
00000050: 08cc 85bc 7c14 1fbd 58a8 0dbd 455b 23bd
00000060: e42b 1e3d 64dd 213d b844 0bbd 648e 65bc
00000070: c001 053a 28fa 603c 0cb8 b83c 486f f7bb
00000080: 0022 85b8 303b c3bc 900e 873c 6870 8d3c
00000090: 6880 113d b1cd e9bc f87f 97bc 33c7 23bd
000000a0: 8600 023d 5a7b 163d c086 bfbc 4418 323d
000000b0: f47f c83c 6ef6 423d d42f ab3c 48e5 c93c
000000c0: 6c9f 273d f2bc 94bc fa86 353d 689a 313c
000000d0: 1a38 57bd 6059 4f3c 4201 85bc 648d fc3c
000000e0: 184c 00bc d876 fb3c 8559 c3bc 31a8 2bbd
000000f0: 0c04 35bd 444c d3bc 24ad 843c 6022 ff3b
00000100: f8b3 2c3c 50e6 0e3d 20c7 9d3b 74d1 4ebd
00000110: d8b9 8e3b 5a07 513d 4010 60ba 08f8 fc3c
00000120: c029 323c f23f 2b3d 7e66 5bbd 68ed 2f3d
00000130: a4ef ab3c f5f4 1ebd db38 eabc 3161 54bd
00000140: a622 29bd bc35 433d 9bd8 58bd 1040 423c
00000150: 70db 213c 7093 61bb c08b 073c 10b1 553c
00000160: 6871 613c b10e dbbc 2e55 303d 084d 16bd
00000170: 28e6 8bbc b877 043d 28eb 28bd 7057 3a3c
00000180: 4cae 293d 0a33 5cbd 68df 7cbc 2418 aabc
00000190: 52a1 093d 2090 443c d650 11bd 82c0 bebc
000001a0: 4e0f 99bc a890 843c c2c8 4b3d d42e 10bd
000001b0: 7048 66bb 40aa 88bb 32a3 9cbc 1826 273c
000001c0: 5a57 3f3d 4698 c3bc 2013 6c3c ac61 f63c
000001d0: 7805 e63c 9cd8 df3c 1e1c 2bbd 3c14 d13c
000001e0: fe01 523d c0db 4a3d ea36 453d 981b d23c
000001f0: 5699 5e3d 6c4a 28bc b1fc 2fbd c47f 50bc
-0.0130436495 0.021023117 -0.011106223 -0.0022144578 -0.040423725 0.03826741 0.05109252 -0.030540068
-0.027968084 0.0038987473 0.054622084 0.006200414 0.018345773 0.03289427 0.04424619 -0.02978075
0.048228003 0.036569327 0.0035786852 0.021925263 -0.016332641 -0.038837895 -0.034584373 -0.039881963
0.038616076 0.039517775 -0.034001082 -0.014010999 0.0005073808 0.013731517 0.022548698 -0.0075511076
-6.348267e-05 -0.023831934 0.016486436 0.017265514 0.03552285 -0.028540464 -0.018493637 -0.039984893
0.03173878 0.03673873 -0.023379683 0.043480173 0.024475075 0.047598295 0.02089683 0.024645463
0.04092352 -0.018156502 0.044318177 0.010840036 -0.052543737 0.012655586 -0.016235951 0.030829139
-0.007830642 0.030696318 -0.023846397 -0.041908447 -0.044193313 -0.025793202 0.016195841 0.0077860802
0.010540955 0.034887612 0.0048149973 -0.05049272 0.0043556504 0.0510324 -0.00085473433 0.03087999
0.010874212 0.04180903 -0.05356454 0.042951018 0.020988293 -0.038807828 -0.028591564 -0.0518505
-0.04129281 0.047658667 -0.052940946 0.011856094 0.009878978 -0.0034420155 0.008273065 0.013042703
0.013759948 -0.026740404 0.043049984 -0.036694556 -0.01707752 0.032340735 -0.041239887 0.011373386
0.041425988 -0.053759612 -0.015434124 -0.020763464 0.033601113 0.011997253 -0.03547748 -0.023285154
-0.018684056 0.016182259 0.049752004 -0.03520091 -0.003513839 -0.004170686 -0.019120786 0.010201953
0.046714164 -0.02387632 0.014408857 0.03007587 0.02807878 0.027324967 -0.04177486 0.025522344
0.05127143 0.049525976 0.048148073 0.025647923 0.05434545 -0.01027165 -0.042965595 -0.012725774

1.weight f4 [128]
00000000: 0000 803f 0000 803f 0000 803f 0000 803f
00000010: 0000 803f 0000 803f 0000 803f 0000 803f
00000020: 0000 803f 0000 803f 0000 803f 0000 803f
00000030: 0000 803f 0000 803f 0000 803f 0000 803f
00000040: 0000 803f 0000 803f 0000 803f 0000 803f
00000050: 0000 803f 0000 803f 0000 803f 0000 803f
00000060: 0000 803f 0000 803f 0000 803f 0000 803f
00000070: 0000 803f 0000 803f 0000 803f 0000 803f
00000080: 0000 803f 0000 803f 0000 803f 0000 803f
00000090: 0000 803f 0000 803f 0000 803f 0000 803f
000000a0: 0000 803f 0000 803f 0000 803f 0000 803f
000000b0: 0000 803f 0000 803f 0000 803f 0000 803f
000000c0: 0000 803f 0000 803f 0000 803f 0000 803f
000000d0: 0000 803f 0000 803f 0000 803f 0000 803f
000000e0: 0000 803f 0000 803f 0000 803f 0000 803f
000000f0: 0000 803f 0000 803f 0000 803f 0000 803f
00000100: 0000 803f 0000 803f 0000 803f 0000 803f
00000110: 0000 803f 0000 803f 0000 803f 0000 803f
00000120: 0000 803f 0000 803f 0000 803f 0000 803f
00000130: 0000 803f 0000 803f 0000 803f 0000 803f
00000140: 0000 803f 0000 803f 0000 803f 0000 803f
00000150: 0000 803f 0000 803f 0000 803f 0000 803f
00000160: 0000 803f 0000 803f 0000 803f 0000 803f
00000170: 0000 803f 0000 803f 0000 803f 0000 803f
00000180: 0000 803f 0000 803f 0000 803f 0000 803f
00000190: 0000 803f 0000 803f 0000 803f 0000 803f
000001a0: 0000 803f 0000 803f 0000 803f 0000 803f
000001b0: 0000 803f 0000 803f 0000 803f 0000 803f
000001c0: 0000 803f 0000 803f 0000 803f 0000 803f
000001d0: 0000 803f 0000 803f 0000 803f 0000 803f
000001e0: 0000 803f 0000 803f 0000 803f 0000 803f
000001f0: 0000 803f 0000 803f 0000 803f 0000 803f
1.0 1.0 1.0 1.0 1.0 1.0 1.0 1.0
1.0 1.0 1.0 1.0 1.0 1.0 1.0 1.0
1.0 1.0 1.0 1.0 1.0 1.0 1.0 1.0
1.0 1.0 1.0 1.0 1.0 1.0 1.0 1.0
1.0 1.0 1.0 1.0 1.0 1.0 1.0 1.0
1.0 1.0 1.0 1.0 1.0 1.0 1.0 1.0
1.0 1.0 1.0 1.0 1.0 1.0 1.0 1.0
1.0 1.0 1.0 1.0 1.0 1.0 1.0 1.0
1.0 1.0 1.0 1.0 1.0 1.0 1.0 1.0
1.0 1.0 1.0 1.0 1.0 1.0 1.0 1.0
1.0 1.0 1.0 1.0 1.0 1.0 1.0 1.0
1.0 1.0 1.0 1.0 1.0 1.0 1.0 1.0
1.0 1.0 1.0 1.0 1.0 1.0 1.0 1.0
1.0 1.0 1.0 1.0 1.0 1.0 1.0 1.0
1.0 1.0 1.0 1.0 1.0 1.0 1.0 1.0
1.0 1.0 1.0 1.0 1.0 1.0 1.0 1.0

1.bias f4 [128]
00000000: 0000 0000 0000 0000 0000 0000 0000 0000
00000010: 0000 0000 0000 0000 0000 0000 0000 0000
00000020: 0000 0000 0000 0000 0000 0000 0000 0000
00000030: 0000 0000 0000 0000 0000 0000 0000 0000
00000040: 0000 0000 0000 0000 0000 0000 0000 0000
00000050: 0000 0000 0000 0000 0000 0000 0000 0000
00000060: 0000 0000 0000 0000 0000 0000 0000 0000
00000070: 0000 0000 0000 0000 0000 0000 0000 0000
00000080: 0000 0000 0000 0000 0000 0000 0000 0000
00000090: 0000 0000 0000 0000 0000 0000 0000 0000
000000a0: 0000 0000 0000 0000 0000 0000 0000 0000
000000b0: 0000 0000 0000 0000 0000 0000 0000 0000
000000c0: 0000 0000 0000 0000 0000 0000 0000 0000
000000d0: 0000 0000 0000 0000 0000 0000 0000 0000
000000e0: 0000 0000 0000 0000 0000 0000 0000 0000
000000f0: 0000 0000 0000 0000 0000 0000 0000 0000
00000100: 0000 0000 0000 0000 0000 0000 0000 0000
00000110: 0000 0000 0000 0000 0000 0000 0000 0000
00000120: 0000 0000 0000 0000 0000 0000 0000 0000
00000130: 0000 0000 0000 0000 0000 0000 0000 0000
00000140: 0000 0000 0000 0000 0000 0000 0000 0000
00000150: 0000 0000 0000 0000 0000 0000 0000 0000
00000160: 0000 0000 0000 0000 0000 0000 0000 0000
00000170: 0000 0000 0000 0000 0000 0000 0000 0000
00000180: 0000 0000 0000 0000 0000 0000 0000 0000
00000190: 0000 0000 0000 0000 0000 0000 0000 0000
000001a0: 0000 0000 0000 0000 0000 0000 0000 0000
000001b0: 0000 0000 0000 0000 0000 0000 0000 0000
000001c0: 0000 0000 0000 0000 0000 0000 0000 0000
000001d0: 0000 0000 0000 0000 0000 0000 0000 0000
000001e0: 0000 0000 0000 0000 0000 0000 0000 0000
000001f0: 0000 0000 0000 0000 0000 0000 0000 0000
0.0 0.0 0.0 0.0 0.0 0.0 0.0 0.0
0.0 0.0 0.0 0.0 0.0 0.0 0.0 0.0
0.0 0.0 0.0 0.0 0.0 0.0 0.0 0.0
0.0 0.0 0.0 0.0 0.0 0.0 0.0 0.0
0.0 0.0 0.0 0.0 0.0 0.0 0.0 0.0
0.0 0.0 0.0 0.0 0.0 0.0 0.0 0.0
0.0 0.0 0.0 0.0 0.0 0.0 0.0 0.0
0.0 0.0 0.0 0.0 0.0 0.0 0.0 0.0
0.0 0.0 0.0 0.0 0.0 0.0 0.0 0.0
0.0 0.0 0.0 0.0 0.0 0.0 0.0 0.0
0.0 0.0 0.0 0.0 0.0 0.0 0.0 0.0
0.0 0.0 0.0 0.0 0.0 0.0 0.0 0.0
0.0 0.0 0.0 0.0 0.0 0.0 0.0 0.0
0.0 0.0 0.0 0.0 0.0 0.0 0.0 0.0
0.0 0.0 0.0 0.0 0.0 0.0 0.0 0.0
0.0 0.0 0.0 0.0 0.0 0.0 0.0 0.0

1.running_mean f4 [128]
00000000: 0000 0000 0000 0000 0000 0000 0000 0000
00000010: 0000 0000 0000 0000 0000 0000 0000 0000
00000020: 0000 0000 0000 0000 0000 0000 0000 0000
00000030: 0000 0000 0000 0000 0000 0000 0000 0000
00000040: 0000 0000 0000 0000 0000 0000 0000 0000
00000050: 0000 0000 0000 0000 0000 0000 0000 0000
00000060: 0000 0000 0000 0000 0000 0000 0000 0000
00000070: 0000 0000 0000 0000 0000 0000 0000 0000
00000080: 0000 0000 0000 0000 0000 0000 0000 0000
00000090: 0000 0000 0000 0000 0000 0000 0000 0000
000000a0: 0000 0000 0000 0000 0000 0000 0000 0000
000000b0: 0000 0000 0000 0000 0000 0000 0000 0000
000000c0: 0000 0000 0000 0000 0000 0000 0000 0000
000000d0: 0000 0000 0000 0000 0000 0000 0000 0000
000000e0: 0000 0000 0000 0000 0000 0000 0000 0000
000000f0: 0000 0000 0000 0000 0000 0000 0000 0000
00000100: 0000 0000 0000 0000 0000 0000 0000 0000
00000110: 0000 0000 0000 0000 0000 0000 0000 0000
00000120: 0000 0000 0000 0000 0000 0000 0000 0000
00000130: 0000 0000 0000 0000 0000 0000 0000 0000
00000140: 0000 0000 0000 0000 0000 0000 0000 0000
00000150: 0000 0000 0000 0000 0000 0000 0000 0000
00000160: 0000 0000 0000 0000 0000 0000 0000 0000
00000170: 0000 0000 0000 0000 0000 0000 0000 0000
00000180: 0000 0000 0000 0000 0000 0000 0000 0000
00000190: 0000 0000 0000 0000 0000 0000 0000 0000
000001a0: 0000 0000 0000 0000 0000 0000 0000 0000
000001b0: 0000 0000 0000 0000 0000 0000 0000 0000
000001c0: 0000 0000 0000 0000 0000 0000 0000 0000
000001d0: 0000 0000 0000 0000 0000 0000 0000 0000
000001e0: 0000 0000 0000 0000 0000 0000 0000 0000
000001f0: 0000 0000 0000 0000 0000 0000 0000 0000
0.0 0.0 0.0 0.0 0.0 0.0 0.0 0.0
0.0 0.0 0.0 0.0 0.0 0.0 0.0 0.0
0.0 0.0 0.0 0.0 0.0 0.0 0.0 0.0
0.0 0.0 0.0 0.0 0.0 0.0 0.0 0.0
0.0 0.0 0.0 0.0 0.0 0.0 0.0 0.0
0.0 0.0 0.0 0.0 0.0 0.0 0.0 0.0
0.0 0.0 0.0 0.0 0.0 0.0 0.0 0.0
0.0 0.0 0.0 0.0 0.0 0.0 0.0 0.0
0.0 0.0 0.0 0.0 0.0 0.0 0.0 0.0
0.0 0.0 0.0 0.0 0.0 0.0 0.0 0.0
0.0 0.0 0.0 0.0 0.0 0.0 0.0 0.0
0.0 0.0 0.0 0.0 0.0 0.0 0.0 0.0
0.0 0.0 0.0 0.0 0.0 0.0 0.0 0.0
0.0 0.0 0.0 0.0 0.0 0.0 0.0 0.0
0.0 0.0 0.0 0.0 0.0 0.0 0.0 0.0
0.0 0.0 0.0 0.0 0.0 0.0 0.0 0.0

1.running_var f4 [128]
00000000: 0000 803f 0000 803f 0000 803f 0000 803f
00000010: 0000 803f 0000 803f 0000 803f 0000 803f
00000020: 0000 803f 0000 803f 0000 803f 0000 803f
00000030: 0000 803f 0000 803f 0000 803f 0000 803f
00000040: 0000 803f 0000 803f 0000 803f 0000 803f
00000050: 0000 803f 0000 803f 0000 803f 0000 803f
00000060: 0000 803f 0000 803f 0000 803f 0000 803f
00000070: 0000 803f 0000 803f 0000 803f 0000 803f
00000080: 0000 803f 0000 803f 0000 803f 0000 803f
00000090: 0000 803f 0000 803f 0000 803f 0000 803f
000000a0: 0000 803f 0000 803f 0000 803f 0000 803f
000000b0: 0000 803f 0000 803f 0000 803f 0000 803f
000000c0: 0000 803f 0000 803f 0000 803f 0000 803f
000000d0: 0000 803f 0000 803f 0000 803f 0000 803f
000000e0: 0000 803f 0000 803f 0000 803f 0000 803f
000000f0: 0000 803f 0000 803f 0000 803f 0000 803f
00000100: 0000 803f 0000 803f 0000 803f 0000 803f
00000110: 0000 803f 0000 803f 0000 803f 0000 803f
00000120: 0000 803f 0000 803f 0000 803f 0000 803f
00000130: 0000 803f 0000 803f 0000 803f 0000 803f
00000140: 0000 803f 0000 803f 0000 803f 0000 803f
00000150: 0000 803f 0000 803f 0000 803f 0000 803f
00000160: 0000 803f 0000 803f 0000 803f 0000 803f
00000170: 0000 803f 0000 803f 0000 803f 0000 803f
00000180: 0000 803f 0000 803f 0000 803f 0000 803f
00000190: 0000 803f 0000 803f 0000 803f 0000 803f
000001a0: 0000 803f 0000 803f 0000 803f 0000 803f
000001b0: 0000 803f 0000 803f 0000 803f 0000 803f
000001c0: 0000 803f 0000 803f 0000 803f 0000 803f
000001d0: 0000 803f 0000 803f 0000 803f 0000 803f
000001e0: 0000 803f 0000 803f 0000 803f 0000 803f
000001f0: 0000 803f 0000 803f 0000 803f 0000 803f
1.0 1.0 1.0 1.0 1.0 1.0 1.0 1.0
1.0 1.0 1.0 1.0 1.0 1.0 1.0 1.0
1.0 1.0 1.0 1.0 1.0 1.0 1.0 1.0
1.0 1.0 1.0 1.0 1.0 1.0 1.0 1.0
1.0 1.0 1.0 1.0 1.0 1.0 1.0 1.0
1.0 1.0 1.0 1.0 1.0 1.0 1.0 1.0
1.0 1.0 1.0 1.0 1.0 1.0 1.0 1.0
1.0 1.0 1.0 1.0 1.0 1.0 1.0 1.0
1.0 1.0 1.0 1.0 1.0 1.0 1.0 1.0
1.0 1.0 1.0 1.0 1.0 1.0 1.0 1.0
1.0 1.0 1.0 1.0 1.0 1.0 1.0 1.0
1.0 1.0 1.0 1.0 1.0 1.0 1.0 1.0
1.0 1.0 1.0 1.0 1.0 1.0 1.0 1.0
1.0 1.0 1.0 1.0 1.0 1.0 1.0 1.0
1.0 1.0 1.0 1.0 1.0 1.0 1.0 1.0
1.0 1.0 1.0 1.0 1.0 1.0 1.0 1.0

3.weight f4 [64, 128]
00000000: 8779 5cbd 22ae 523d 2d8c 89bd a6d0 12bd
00000010: 977d 39bd d458 05bd 865d 0bbd d8fc 8cbc
00000020: d216 3c3d 2093 4ebd e085 64bc 829b 94bd
00000030: 184d 0a3c 648b a4bc d6b0 9ebd e022 9a3c
00000040: 30b2 c53b c770 1fbd 60c0 debb e52a 9fbd
00000050: d84c d8bc ac4d 83bc 701b 203c cae7 6c3d
00000060: 25c5 af3d 3804 653c 7864 90bd 9259 253d
00000070: 18bc 403c 305a 22bd b08f fdbb 8bfd 94bd
00000080: 6699 673d fd27 993d ca9b 7bbd 4adf 83bd
00000090: 9935 61bd 7899 183c b149 a63d 72c0 37bd
000000a0: dea2 133d 856a 9f3d bd75 863d 9707 953d
000000b0: 4a19 7e3d c0b7 7f3b 8ab5 5d3d 0f56 41bd
000000c0: cbed 923d cd47 92bd 3bc0 ab3d 823e 393d
000000d0: 67b3 843d 495d b33d 2caa 0d3d 8c1d 9ebd
000000e0: 7c1a 9ebc 44bf babc f7a3 953d fd85 a83d
000000f0: af47 5dbd c42c 8fbc d24c b3bd a0a5 f7bc
00000100: c44c efbc a082 a1bd 4207 57bd 25a2 ae3d
00000110: e4b9 b0bd 8e30 99bd a8bd 82bc 180c 81bc
00000120: 9ca4 883c cc78 813c d034 88bd 3924 9fbd
00000130: 683c a1bd 75c0 893d 1043 33bc e19e 4ebd
00000140: 61ca 93bd 476f 2dbd 0a49 3d3d cbb3 943d
00000150: 9fad 8c3d 5287 03bd 90b9 8abd 18c2 083d
00000160: 0032 d3bb d36f 2cbd d027 ec3c 94a6 2fbd
00000170: ced3 203d dd45 ab3d 1ce8 8abc 4413 db3c
00000180: 6b1e 903d 50da 1dbd 268d 15bd 005b 363a
00000190: d2e0 efbc 0ee6 023d c09b a23a 3eb3 7abd
000001a0: 611d 9f3d e356 b13d 6b94 aabd 6680 6d3d
000001b0: 612d a53d eaf7 adbd 8973 54bd 23f2 a83d
000001c0: c06c 963c 800e 753c ce32 6f3d 6077 653b
000001d0: 16a2 613d 683e df3c d6c1 073d 3c1d 923c
000001e0: 8fdc 1cbd 34ed dc3c 31f0 16bd a62f 3abd
000001f0: 45c5 8d3d 4cc1 87bc 4b33 993d 363b 52bd
00000200: f027 bdbc 8a77 0e3d d6f3 1c3d 9ca3 b0bc
00000210: 659e 04bd fbae a83d a029 67bb ed46 a93d
00000220: cf4e 1cbd d0cd fdbb f831 593c 4fde 94bd
00000230: fb7b 5ebd 7042 6fbd 20ac 9ebd 04a1 f93c
00000240: 2c65 8e3c eb09 813d 447a af3c 7a35 623d
00000250: 0c37 c63c b4d1 833c c0c8 a1bd ef21 9fbd
00000260: 0691 4b3d da43 1e3d c605 92bd 2ef4 a0bd
00000270: f2d7 24bd 62f6 7a3d ea31 453d c6c3 f1bc
00000280: 8596 9d3d 61cd 953d 80ba 1b3b fbe1 a4bd
00000290: e8ed 623c 774e 913d 4c32 9abd 68e0 633c
000002a0: 82dc 92bd a2c5 6abd 5c8b d83c 8a83 92bd
000002b0: e2a3 a2bd f47c f53c 0ec0 97bd a0ba b93b
000002c0: 30da a0bc e865 5f3c 95a2 a13d f14d 883d
000002d0: 944b 063d f67a 6bbd 1056 fdbc be30 55bd
000002e0: 80f0 783b 73bf 9b3d d29b 2abd d807 36bc
000002f0: 0f3f 823d a4e3 ba3c 22a0 6b3d ada9 34bd
00000300: d913 8a3d 012c 27bd 10d1 2e3c 4c4d b0bc
00000310: 0812 70bd 764a 5b3d d626 4f3d 1cc7 89bd
00000320: 59d3 5dbd f34d b33d 843a dabc 1a77 453d
00000330: fbf8 b33d 429c 483d 8201 75bd 40b9 c53b
00000340: e8b5 0dbc 6fde 2ebd c0c9 72bb c71f 92bd
00000350: 8029 853c b45d d4bc 60d8 39bd 5fd1 853d
00000360: a4de 873c 0c37 9b3c 9378 b13d 418a 8abd
00000370: 10fd e5bb dda9 833d 5057 8bbb f007 1cbc
00000380: e806 083d 1512 843d 28e9 8abc 30fd ac3b
00000390: da5c 94bd 3883 d1bc 8805 b03c e76d a33d
000003a0: bee5 213d 20a0 f2bc 2f2b 3abd cce9 90bc
000003b0: 7413 95bc 2658 1fbd d0f7 fbbb 6010 24bb
000003c0: 94ef 93bd c8ef 43bc 3e65 86bd be68 f8bc
000003d0: 425e 85bd adaf 803d a579 61bd 1282 4bbd
000003e0: 27bd a93d d8b4 a8bc 3fc1 23bd f6d2 52bd
000003f0: 1844 5bbc b0f3 d1bb 0199 99bd 60c0 203c
-0.053826835 0.051435597 -0.067161895 -0.035843514 -0.045285787 -0.032555416 -0.034024738 -0.017210409
0.0459202 -0.050433278 -0.013947934 -0.07256223 0.008441232 -0.020085998 -0.077485725 0.018815458
0.0060332045 -0.038925912 -0.006797835 -0.07771853 -0.02640383 -0.016028248 0.009772167 0.05783824
0.08582524 0.013978057 -0.07050413 0.040368624 0.011763595 -0.03963679 -0.007738076 -0.07274922
0.056542777 0.0747833 -0.06142787 -0.064390734 -0.054982755 0.009313934 0.08119524 -0.044861265
0.036043994 0.07783989 0.065654255 0.07276838 0.062035836 0.0039019436 0.054128207 -0.047201212
0.07174262 -0.07142601 0.083862744 0.045225628 0.06479531 0.08758027 0.034586117 -0.07720479
-0.019299738 -0.02279628 0.073066644 0.08228681 -0.05402344 -0.0174774 -0.08754887 -0.030230343
-0.02921141 -0.07886243 -0.052497156 0.0852702 -0.08629206 -0.07479964 -0.015959576 -0.015752837
0.016680054 0.01580467 -0.06650698 -0.07770581 -0.0787285 0.067261614 -0.010941282 -0.050444487
-0.07216335 -0.04234245 0.046212234 0.07260855 0.06869053 -0.032111473 -0.067736745 0.033388227
-0.0064451694 -0.04209883 0.028827578 -0.04288347 0.039264493 0.08362935 -0.016956381 0.026742585
0.07037052 -0.038538277 -0.036511563 0.0006956309 -0.029282007 0.03195768 0.0012406036 -0.061206095
0.077692755 0.086591505 -0.0832909 0.05798378 0.08065296 -0.084945515 -0.051867995 0.08249309
0.018362403 0.01495707 0.05839806 0.003501378 0.055086218 0.027251437 0.03314384 0.017836206
-0.03829628 0.026968576 -0.036850158 -0.045455597 0.06922392 -0.016571663 0.074804865 -0.051326
-0.023090333 0.03478197 0.038318478 -0.02156239 -0.03237762 0.082365 -0.0035272613 0.08265481
-0.038161095 -0.007745482 0.013256542 -0.072689645 -0.054317456 -0.05841297 -0.07747674 0.030472286
0.017382227 0.0630072 0.021420605 0.05522678 0.02419617 0.016091205 -0.07899618 -0.07770144
0.049698852 0.038638927 -0.071300074 -0.078590736 -0.040245004 0.061270125 0.048143305 -0.029512297
0.07694725 0.073145635 0.0023762286 -0.08050915 0.013850667 0.07095044 -0.075291246 0.013908483
-0.07170965 -0.057317384 0.02643364 -0.07153995 -0.079414144 0.029966809 -0.074096784 0.0056679994
-0.01963529 0.013635136 0.07892338 0.06655491 0.03278692 -0.05749031 -0.030924827 -0.052048437
0.0037985146 0.076048754 -0.041652508 -0.0111102685 0.06359684 0.022813626 0.05752576 -0.044107128
0.06742067 -0.04081345 0.010669962 -0.021521233 -0.058610946 0.05353781 0.050574146 -0.0672743
-0.054156635 0.08755102 -0.02663923 0.048209287 0.08787724 0.048977144 -0.05981589 0.0060340464
-0.008649327 -0.042692598 -0.0037046522 -0.07134967 0.01625514 -0.025923587 -0.045372367 0.06534075
0.016585656 0.018947147 0.08665576 -0.06764651 -0.007018693 0.06428883 -0.004252352 -0.009523377
0.03320971 0.064487614 -0.01695688 0.0052792057 -0.072442725 -0.025575265 0.021487013 0.079799466
0.03952574 -0.02961737 -0.04545134 -0.017689608 -0.018197753 -0.038902424 -0.0076894537 -0.0025034174
-0.0722343 -0.011959024 -0.06562279 -0.030323382 -0.06512119 0.062835075 -0.05504765 -0.04968459
0.08288031 -0.020594046 -0.039979216 -0.05147072 -0.013382934 -0.0064072236 -0.07499886 0.009811491

3.bias f4 [64]
00000000: 405c d43b 4cb9 b13c 4c19 01bd 745b b93c
00000010: 3782 813d e287 98bd 701d 2cbd 70c3 db3b
00000020: 8070 4eba 18f8 98bd c9c9 25bd e008 6f3b
00000030: f8da 0bbd 66cd 3cbd 0eb8 7dbd 1a6a 773d
00000040: 9873 563c 48a9 603c 08a2 88bd ae62 253d
00000050: 343f f73c 2a69 403d 485d b6bc 32a1 523d
00000060: 27ea 963d 3893 47bc 4027 523c d51c 923d
00000070: 6088 163b 93c3 2cbd e77d 903d c88c 053c
00000080: c2b3 3a3d e08c b8bc 4b89 08bd 2438 a5bc
00000090: 7cb3 a1bd 2daf acbd 5e47 88bd 86ae 7a3d
000000a0: 76a4 6b3d c4b1 12bd 40c0 64bd 97a6 af3d
000000b0: 2055 733b fc49 75bd 028c 353d e0d6 26bc
000000c0: b482 f53c 5a74 263d 4f08 9e3d bca0 8abc
000000d0: feb3 70bd 9459 fe3c 7a22 77bd 7dbc b33d
000000e0: 9e3e 633d 30bf 7c3c a45c 6cbd 07ed a93d
000000f0: b04c e93b c4bf 6cbd 5afb 6e3d 7032 6c3c
0.0064807236 0.021694802 -0.031518266 0.022626616 0.06323665 -0.074477926 -0.04202026 0.0067066476
-0.000787504 -0.07469195 -0.04047564 0.0036473796 -0.03414437 -0.04609432 -0.061943106 0.06040392
0.013089083 0.013712235 -0.0667153 0.04037731 0.030181505 0.046975292 -0.022261277 0.05142326
0.0736888 -0.012181096 0.012826741 0.071344055 0.002296947 -0.0421787 0.07055264 0.008151241
0.045581587 -0.022528112 -0.033334058 -0.020168371 -0.07895562 -0.0843185 -0.06654237 0.061201595
0.05752989 -0.03581406 -0.055847406 0.08576696 0.0037129596 -0.05988501 0.044322975 -0.010183066
0.02996955 0.040638305 0.077164285 -0.016922347 -0.058765404 0.031048574 -0.060335614 0.08776186
0.05547964 0.015426442 -0.057705536 0.082971625 0.0071197376 -0.05780007 0.058345176 0.014416322

4.weight f4 [64]
00000000: 0000 803f 0000 803f 0000 803f 0000 803f
00000010: 0000 803f 0000 803f 0000 803f 0000 803f
00000020: 0000 803f 0000 803f 0000 803f 0000 803f
00000030: 0000 803f 0000 803f 0000 803f 0000 803f
00000040: 0000 803f 0000 803f 0000 803f 0000 803f
00000050: 0000 803f 0000 803f 0000 803f 0000 803f
00000060: 0000 803f 0000 803f 0000 803f 0000 803f
00000070: 0000 803f 0000 803f 0000 803f 0000 803f
00000080: 0000 803f 0000 803f 0000 803f 0000 803f
00000090: 0000 803f 0000 803f 0000 803f 0000 803f
000000a0: 0000 803f 0000 803f 0000 803f 0000 803f
000000b0: 0000 803f 0000 803f 0000 803f 0000 803f
000000c0: 0000 803f 0000 803f 0000 803f 0000 803f
000000d0: 0000 803f 0000 803f 0000 803f 0000 803f
000000e0: 0000 803f 0000 803f 0000 803f 0000 803f
000000f0: 0000 803f 0000 803f 0000 803f 0000 803f
1.0 1.0 1.0 1.0 1.0 1.0 1.0 1.0
1.0 1.0 1.0 1.0 1.0 1.0 1.0 1.0
1.0 1.0 1.0 1.0 1.0 1.0 1.0 1.0
1.0 1.0 1.0 1.0 1.0 1.0 1.0 1.0
1.0 1.0 1.0 1.0 1.0 1.0 1.0 1.0
1.0 1.0 1.0 1.0 1.0 1.0 1.0 1.0
1.0 1.0 1.0 1.0 1.0 1.0 1.0 1.0
1.0 1.0 1.0 1.0 1.0 1.0 1.0 1.0

4.bias f4 [64]
00000000: 0000 0000 0000 0000 0000 0000 0000 0000
00000010: 0000 0000 0000 0000 0000 0000 0000 0000
00000020: 0000 0000 0000 0000 0000 0000 0000 0000
00000030: 0000 0000 0000 0000 0000 0000 0000 0000
00000040: 0000 0000 0000 0000 0000 0000 0000 0000
00000050: 0000 0000 0000 0000 0000 0000 0000 0000
00000060: 0000 0000 0000 0000 0000 0000 0000 0000
00000070: 0000 0000 0000 0000 0000 0000 0000 0000
00000080: 0000 0000 0000 0000 0000 0000 0000 0000
00000090: 0000 0000 0000 0000 0000 0000 0000 0000
000000a0: 0000 0000 0000 0000 0000 0000 0000 0000
000000b0: 0000 0000 0000 0000 0000 0000 0000 0000
000000c0: 0000 0000 0000 0000 0000 0000 0000 0000
000000d0: 0000 0000 0000 0000 0000 0000 0000 0000
000000e0: 0000 0000 0000 0000 0000 0000 0000 0000
000000f0: 0000 0000 0000 0000 0000 0000 0000 0000
0.0 0.0 0.0 0.0 0.0 0.0 0.0 0.0
0.0 0.0 0.0 0.0 0.0 0.0 0.0 0.0
0.0 0.0 0.0 0.0 0.0 0.0 0.0 0.0
0.0 0.0 0.0 0.0 0.0 0.0 0.0 0.0
0.0 0.0 0.0 0.0 0.0 0.0 0.0 0.0
0.0 0.0 0.0 0.0 0.0 0.0 0.0 0.0
0.0 0.0 0.0 0.0 0.0 0.0 0.0 0.0
0.0 0.0 0.0 0.0 0.0 0.0 0.0 0.0

4.running_mean f4 [64]
00000000: 0000 0000 0000 0000 0000 0000 0000 0000
00000010: 0000 0000 0000 0000 0000 0000 0000 0000
00000020: 0000 0000 0000 0000 0000 0000 0000 0000
00000030: 0000 0000 0000 0000 0000 0000 0000 0000
00000040: 0000 0000 0000 0000 0000 0000 0000 0000
00000050: 0000 0000 0000 0000 0000 0000 0000 0000
00000060: 0000 0000 0000 0000 0000 0000 0000 0000
00000070: 0000 0000 0000 0000 0000 0000 0000 0000
00000080: 0000 0000 0000 0000 0000 0000 0000 0000
00000090: 0000 0000 0000 0000 0000 0000 0000 0000
000000a0: 0000 0000 0000 0000 0000 0000 0000 0000
000000b0: 0000 0000 0000 0000 0000 0000 0000 0000
000000c0: 0000 0000 0000 0000 0000 0000 0000 0000
000000d0: 0000 0000 0000 0000 0000 0000 0000 0000
000000e0: 0000 0000 0000 0000 0000 0000 0000 0000
000000f0: 0000 0000 0000 0000 0000 0000 0000 0000
0.0 0.0 0.0 0.0 0.0 0.0 0.0 0.0
0.0 0.0 0.0 0.0 0.0 0.0 0.0 0.0
0.0 0.0 0.0 0.0 0.0 0.0 0.0 0.0
0.0 0.0 0.0 0.0 0.0 0.0 0.0 0.0
0.0 0.0 0.0 0.0 0.0 0.0 0.0 0.0
0.0 0.0 0.0 0.0 0.0 0.0 0.0 0.0
0.0 0.0 0.0 0.0 0.0 0.0 0.0 0.0
0.0 0.0 0.0 0.0 0.0 0.0 0.0 0.0

4.running_var f4 [64]
00000000: 0000 803f 0000 803f 0000 803f 0000 803f
00000010: 0000 803f 0000 803f 0000 803f 0000 803f
00000020: 0000 803f 0000 803f 0000 803f 0000 803f
00000030: 0000 803f 0000 803f 0000 803f 0000 803f
00000040: 0000 803f 0000 803f 0000 803f 0000 803f
00000050: 0000 803f 0000 803f 0000 803f 0000 803f
00000060: 0000 803f 0000 803f 0000 803f 0000 803f
00000070: 0000 803f 0000 803f 0000 803f 0000 803f
00000080: 0000 803f 0000 803f 0000 803f 0000 803f
00000090: 0000 803f 0000 803f 0000 803f 0000 803f
000000a0: 0000 803f 0000 803f 0000 803f 0000 803f
000000b0: 0000 803f 0000 803f 0000 803f 0000 803f
000000c0: 0000 803f 0000 803f 0000 803f 0000 803f
000000d0: 0000 803f 0000 803f 0000 803f 0000 803f
000000e0: 0000 803f 0000 803f 0000 803f 0000 803f
000000f0: 0000 803f 0000 803f 0000 803f 0000 803f
1.0 1.0 1.0 1.0 1.0 1.0 1.0 1.0
1.0 1.0 1.0 1.0 1.0 1.0 1.0 1.0
1.0 1.0 1.0 1.0 1.0 1.0 1.0 1.0
1.0 1.0 1.0 1.0 1.0 1.0 1.0 1.0
1.0 1.0 1.0 1.0 1.0 1.0 1.0 1.0
1.0 1.0 1.0 1.0 1.0 1.0 1.0 1.0
1.0 1.0 1.0 1.0 1.0 1.0 1.0 1.0
1.0 1.0 1.0 1.0 1.0 1.0 1.0 1.0

6.weight f4 [32, 64]
00000000: 6632 9dbd 5e36 ff3d f866 d13c 00c9 9dbd
00000010: 1863 01bd 2058 99bb fc59 5d3d f468 d63d
00000020: dc62 93bd 24aa 6dbd 98ec 1bbd 2019 853c
00000030: 9097 c53c e6dc c6bd 2c65 283d 208c 693d
00000040: 5a3c ddbd e892 e7bd 9856 6b3d f8ae 5e3d
00000050: 70e9 00bc 1ac0 d1bd 10e8 abbd 8866 edbc
00000060: a658 f2bd a0a1 d73b d06f dbbd 86be 8a3d
00000070: d8a8 c1bc 7275 8d3d 6827 b1bd 64b3 e2bd
00000080: f8cf 433d 46c8 c53d 7017 62bd 62ed b3bd
00000090: 00a6 6b3d 26b2 9bbd 40b0 ddbc 1a9e d6bd
000000a0: 183b 5d3d 6ab3 ca3d 8a15 f3bd ae4c ebbd
000000b0: 9c12 afbd c0b2 d13c 40e4 0e3b 1434 1abd
000000c0: 704f 7d3d 786d 443d 1cdc 82bd 9e53 88bd
000000d0: 76da aabd fe9f c03d 201e 043c c04e 8b3c
000000e0: 1ed6 bb3d 2c1a c73d 4040 f93b 4c47 d23d
000000f0: c086 00bc 00e5 e23d f837 833d a464 5b3d
00000100: de35 ecbd 405e 5e3d dabd 91bd 4651 f7bd
00000110: 7c9c e03d 10a9 ecbd 58a2 f7bd 26be cb3d
00000120: bc1b 60bd 8009 ffbb 4871 d6bd 68a2 6abd
00000130: 24aa 17bd 04f7 383d a459 9cbd 5e4d f93d
00000140: 40e1 07bb c806 1d3d ca45 aa3d f291 f6bd
00000150: 2c89 8cbd 662a 9d3d 002c caba 2c17 77bd
00000160: c047 d1bc 749b 273d a485 943d 1af9 f2bd
00000170: 80d2 753d c0ef 9e3c 5ceb 9e3d 005e 70bc
00000180: 0e33 e63d 1cd4 b2bd 8026 23bc 1eda a53d
00000190: 985a bebc eaa0 cfbd cab3 8ebd 348e b73d
000001a0: 581a debd 4068 8cbb f488 193d 6cba 14bd
000001b0: 1c4f a53d de1b b5bd 98ba 363d 80ed 90bc
000001c0: bc22 e1bd 78fa e03c fc05 f9bd 3639 bb3d
000001d0: d2b8 bfbd d08d db3d 38bc ea3d cee9 ccbd
000001e0: 7071 913c c009 ff3d 06ff a33d 5824 72bd
000001f0: 48ff 1fbd 52fd c8bd 54a7 a73d deb4 eb3d
00000200: d423 763d 5cda 71bd a87b d6bc 3088 d2bd
00000210: 306c aebd aa81 b7bd 08db e53c 6004 92bd
00000220: 605e e93d 743b e8bd ec8f e33d 1476 3a3d
00000230: 987b 843c 6839 ad3c 10a1 afbd 1073 7f3c
00000240: 20d8 ccbb dea8 813d f806 c53c 284f b73c
00000250: 4886 d6bd 8ac0 82bd a0fb c1bd 68aa fa3c
00000260: 2465 15bd 581d f2bc 06fe 8ebd 20b8 96bc
00000270: fc29 19bd 8c30 5f3d a0ab aa3c e2a6 ae3d
00000280: c68a d03d 4013 c03d fc67 563d 880e 54bd
00000290: 12e5 b7bd ec86 be3d 182a ff3c 2604 d1bd
000002a0: ae0e edbd 22ad 97bd 1678 fe3d d02b 2d3d
000002b0: 1042 9fbc 6252 b23d 7c83 cdbd a0aa 7dbd
000002c0: d0e5 f0bd 88df e43d f8db b8bd 2e99 a9bd
000002d0: 68a8 03bd c0ae a33d a0d4 1d3d 2840 eebd
000002e0: f8ae 763d 9625 83bd ac45 9abd d44b 2dbd
000002f0: c414 fbbd e230 bfbd 8085 f93b ac07 19bd
00000300: ca57 b5bd fc1e 003d 08d7 48bd a84b e33c
00000310: c418 a5bd 00c2 163b e270 eabd 566c eabd
00000320: 0c7c 513d d03b 2c3d fc94 8ebd 8824 56bd
00000330: 0487 efbd 0868 103d 98dd 86bd 544c 153d
00000340: 5090 273d 142d 733d 88cd 0bbd a06c afbb
00000350: d086 0fbd 3468 8f3d 8c30 3f3d 721e 91bd
00000360: 08db ed3d 40e3 a53c da5b febd ac2b 493d
00000370: 7e5e dabd 82a2 abbd d819 e03c 2002 9cbc
00000380: 98d2 4f3d 727f cbbd c44e 473d 7094 ba3c
00000390: 8239 93bd 94b8 e1bd 36a1 bcbd d86f 933d
000003a0: 70ce 11bd 6eb3 da3d 00da 5a3c 6c7a d1bd
000003b0: f8e6 96bc 80c2 023c 7607 a1bd 90cd 233d
000003c0: 8c80 edbd 20ad 66bc 26da 833d 22c2 d9bd
000003d0: 56b3 993d 6860 b93d 508d 4ebc 3a07 c7bd
000003e0: c077 f93d 966e d4bd 30e0 bbbd 1009 8bbd
000003f0: e43a 253d 18c5 a43d 50a3 113d 5cce a5bd
-0.07675628 0.124615416 0.025561795 -0.07704353 -0.031588644 -0.004679695 0.054040894 0.10469237
-0.0719659 -0.058023587 -0.03806743 0.016247332 0.024120122 -0.09710102 0.04111211 0.0570184
-0.10802527 -0.11307317 0.05745563 0.054366082 -0.007868156 -0.102417186 -0.08393872 -0.028979555
-0.118333146 0.0065805465 -0.10714686 0.06774621 -0.023640081 0.069071665 -0.08650094 -0.11069372
0.047805756 0.0965734 -0.055198133 -0.087855116 0.057531357 -0.076023385 -0.027061582 -0.10479374
0.054011434 0.09897502 -0.118693426 -0.11489235 -0.08548471 0.02559793 0.0021803528 -0.03764732
0.061843336 0.04795596 -0.06389639 -0.06656574 -0.08342449 0.09405516 0.008063823 0.017005324
0.09171699 0.09721789 0.007606536 0.10267505 -0.007844627 0.110788345 0.064071596 0.053562775
-0.11533712 0.054289103 -0.071162894 -0.120760486 0.10967347 -0.115556836 -0.120915115 0.09948377
-0.05471395 -0.007783115 -0.104708254 -0.05728379 -0.037027493 0.045157447 -0.07634285 0.1217296
-0.0020733625 0.038336545 0.083140925 -0.120395556 -0.06862101 0.076741025 -0.001542449 -0.060324833
-0.025546908 0.040919736 0.072520524 -0.118639186 0.0600152 0.019401431 0.07759735 -0.014670849
0.11240207 -0.08731863 -0.00995791 0.08098243 -0.023236558 -0.10138114 -0.06967886 0.0896267
-0.108448684 -0.0042848885 0.037484124 -0.0363106 0.080717295 -0.08843206 0.044611543 -0.017691374
-0.10992953 0.027463183 -0.121593446 0.091417715 -0.093614236 0.10720408 0.11461681 -0.10005532
0.017754287 0.124530315 0.08007626 -0.05911669 -0.039061815 -0.09813942 0.08186212 0.11509107
0.060092762 -0.059046134 -0.02618201 -0.10279882 -0.08516729 -0.08960278 0.028058544 -0.07129741
0.11394954 -0.11339465 0.11111435 0.045522764 0.016172215 0.021145537 -0.08575642 0.015591398
-0.00625135 0.06331037 0.024051175 0.022376612 -0.10474831 -0.0638438 -0.09471822 0.030598834
-0.03647341 -0.029555008 -0.06982045 -0.018398345 -0.037393555 0.054489657 0.02083379 0.08527924
0.10182719 0.09378672 0.05234526 -0.05177167 -0.089792386 0.09303078 0.031148002 -0.102058694
-0.115750656 -0.07406069 0.12425248 0.04227811 -0.01944068 0.087071195 -0.10034844 -0.0619303
-0.11762583 0.11175448 -0.09026331 -0.0828117 -0.032143027 0.07992315 0.038532853 -0.116333306
0.060225457 -0.06403653 -0.0753282 -0.042308643 -0.1225982 -0.093354955 0.0076147914 -0.037360832
-0.08854635 0.03127955 -0.049033195 0.027746037 -0.08061364 0.0023003817 -0.11447312 -0.11446445
0.05114369 0.04204923 -0.0696201 -0.052280933 -0.11695674 0.035255462 -0.065852344 0.036449745
0.04090911 0.05936916 -0.034131557 -0.0053535253 -0.035040677 0.07002297 0.046677157 -0.07085885
0.116140425 0.020249963 -0.12419863 0.049113914 -0.10662554 -0.08380605 0.027356073 -0.019043982
0.050737947 -0.09936418 0.0486591 0.022775859 -0.07188703 -0.110215336 -0.09210436 0.07199067
-0.035597265 0.10678755 0.013357639 -0.10228428 -0.018420681 0.007980943 -0.07862751 0.03999096
-0.11596784 -0.014079362 0.06438093 -0.10632731 0.07504909 0.09051591 -0.012606934 -0.09718175
0.121810436 -0.10372655 -0.0917362 -0.06788838 0.040339366 0.08045405 0.035556138 -0.080960006

6.bias f4 [32]
00000000: 04d9 9d3d 5a31 933d f899 d23c cc28 51bd
00000010: bc4b a6bd cc95 483d 8af9 8fbd 782e a5bd
00000020: cc70 43bd 48c6 f5bd 0863 e2bc 0448 a3bd
00000030: 4431 67bd 0824 a83d 801b 3d3d 804f d4bc
00000040: 32a9 81bd 4041 9dbd a6bd b93d a453 98bd
00000050: 9a9e ddbd 7867 52bd 6006 573d 8694 863d
00000060: 1cb9 85bd 045e d33d c051 573b f870 ffbc
00000070: 984d 97bd 2042 233d a8dc c83d 946d e33d
0.07707408 0.071871474 0.025708184 -0.051064298 -0.08119914 0.048970982 -0.07030018 -0.08065504
-0.047714993 -0.1200071 -0.027635112 -0.0797272 -0.056443468 0.082099974 0.046168804 -0.025916815
-0.063310996 -0.07678461 0.09069376 -0.07437828 -0.108212665 -0.051368207 0.052496314 0.06571297
-0.065294474 0.103206664 0.0032855123 -0.031181797 -0.07387847 0.039857984 0.09807712 0.11104885

7.weight f4 [32]
00000000: 0000 803f 0000 803f 0000 803f 0000 803f
00000010: 0000 803f 0000 803f 0000 803f 0000 803f
00000020: 0000 803f 0000 803f 0000 803f 0000 803f
00000030: 0000 803f 0000 803f 0000 803f 0000 803f
00000040: 0000 803f 0000 803f 0000 803f 0000 803f
00000050: 0000 803f 0000 803f 0000 803f 0000 803f
00000060: 0000 803f 0000 803f 0000 803f 0000 803f
00000070: 0000 803f 0000 803f 0000 803f 0000 803f
1.0 1.0 1.0 1.0 1.0 1.0 1.0 1.0
1.0 1.0 1.0 1.0 1.0 1.0 1.0 1.0
1.0 1.0 1.0 1.0 1.0 1.0 1.0 1.0
1.0 1.0 1.0 1.0 1.0 1.0 1.0 1.0

7.bias f4 [32]
00000000: 0000 0000 0000 0000 0000 0000 0000 0000
00000010: 0000 0000 0000 0000 0000 0000 0000 0000
00000020: 0000 0000 0000 0000 0000 0000 0000 0000
00000030: 0000 0000 0000 0000 0000 0000 0000 0000
00000040: 0000 0000 0000 0000 0000 0000 0000 0000
00000050: 0000 0000 0000 0000 0000 0000 0000 0000
00000060: 0000 0000 0000 0000 0000 0000 0000 0000
00000070: 0000 0000 0000 0000 0000 0000 0000 0000
0.0 0.0 0.0 0.0 0.0 0.0 0.0 0.0
0.0 0.0 0.0 0.0 0.0 0.0 0.0 0.0
0.0 0.0 0.0 0.0 0.0 0.0 0.0 0.0
0.0 0.0 0.0 0.0 0.0 0.0 0.0 0.0

7.running_mean f4 [32]
00000000: 0000 0000 0000 0000 0000 0000 0000 0000
00000010: 0000 0000 0000 0000 0000 0000 0000 0000
00000020: 0000 0000 0000 0000 0000 0000 0000 0000
00000030: 0000 0000 0000 0000 0000 0000 0000 0000
00000040: 0000 0000 0000 0000 0000 0000 0000 0000
00000050: 0000 0000 0000 0000 0000 0000 0000 0000
00000060: 0000 0000 0000 0000 0000 0000 0000 0000
00000070: 0000 0000 0000 0000 0000 0000 0000 0000
0.0 0.0 0.0 0.0 0.0 0.0 0.0 0.0
0.0 0.0 0.0 0.0 0.0 0.0 0.0 0.0
0.0 0.0 0.0 0.0 0.0 0.0 0.0 0.0
0.0 0.0 0.0 0.0 0.0 0.0 0.0 0.0

7.running_var f4 [32]
00000000: 0000 803f 0000 803f 0000 803f 0000 803f
00000010: 0000 803f 0000 803f 0000 803f 0000 803f
00000020: 0000 803f 0000 803f 0000 803f 0000 803f
00000030: 0000 803f 0000 803f 0000 803f 0000 803f
00000040: 0000 803f 0000 803f 0000 803f 0000 803f
00000050: 0000 803f 0000 803f 0000 803f 0000 803f
00000060: 0000 803f 0000 803f 0000 803f 0000 803f
00000070: 0000 803f 0000 803f 0000 803f 0000 803f
1.0 1.0 1.0 1.0 1.0 1.0 1.0 1.0
1.0 1.0 1.0 1.0 1.0 1.0 1.0 1.0
1.0 1.0 1.0 1.0 1.0 1.0 1.0 1.0
1.0 1.0 1.0 1.0 1.0 1.0 1.0 1.0

9.weight f4 [1, 32]
00000000: 3443 52bd 89cf 183e a77c 86bd 454e 9bbd
00000010: 00c1 173d eeda 0dbe 500d 993c 0f3b 21be
00000020: 322b 17be a05f 7a3d 07ec 243e 7ce9 893d
00000030: f3a8 2a3e a26f b23d ec69 23bd a245 ebbd
00000040: 3435 2fbe 8814 7f3d 9a84 d23d 4258 f1bd
00000050: 8489 77bd 4554 9dbd 8e54 7abd 60ae e53b
00000060: e8f8 353d 0588 fabd 3377 063e e8ba 1bbe
00000070: 32fb cc3d 3040 d63c f6e1 e8bd 14c2 20be
-0.05133362 0.14922918 -0.06566744 -0.07583288 0.037049294 -0.13853046 0.018683106 -0.15745185
-0.14762571 0.06112635 0.16105662 0.06733987 0.16666012 0.087126985 -0.039895937 -0.11487891
-0.17110139 0.06227544 0.10279198 -0.11784412 -0.06043388 -0.07682089 -0.061115794 0.0070093125
0.04442683 -0.12232975 0.13131408 -0.15208018 0.10008849 0.026153654 -0.11371224 -0.15699035
